v1/data.pth (torch, 8279 bytes, 6 tensors)

l1.weight f4 [8, 109]
000000 34 85 7a be a9 e4 c0 3d ca 7e 83 3e db 8d 14 3f
       -0.24464875 0.094186135 0.2568267 0.58028954
000010 01 c1 2a 3e 31 dc 94 be 37 07 af 3d b1 09 2c be
       0.16675188 -0.29074243 0.08546298 -0.16800572
000020 9f fb 90 3e 8c b8 3d 3e 47 87 04 bc f2 3a 9f be
       0.28316972 0.1852743 -0.008088893 -0.3109966
000030 34 21 b5 3e 10 0c 4d 3f 03 9a 76 3f e4 34 13 3e
       0.35376894 0.8009653 0.96328753 0.14375645
000040 92 4a c9 be e2 28 6f be 8d 1a 09 3f fa c1 9a 3e
       -0.39314705 -0.2335544 0.5355614 0.30226117
000050 4e 11 28 3f e7 a2 91 bd 94 e8 0d be 8d 00 0e 3f
       0.65651405 -0.07111149 -0.13858253 0.5546959
000060 b4 6e 94 3e f1 32 19 3e 8d 28 0b bf b0 0b 1e 3f
       0.2899071 0.14960839 -0.5435875 0.61736584
000070 c7 57 09 be c7 4f 37 bf 0b 35 82 3f 5c f2 78 3e
       -0.1341239 -0.71606106 1.0172437 0.24311203
000080 f4 35 f3 3e 51 8a 9b be 85 bd d6 3f fc 37 44 3f
       0.475021 -0.30378965 1.6776587 0.76647925
000090 d3 43 07 bf c7 41 69 3d e7 b1 15 bd 96 44 b5 be
       -0.52837867 0.056947496 -0.036546614 -0.3540389
0000a0 26 be 00 3f 72 7e f8 3e 0e 4b 02 3f f8 c4 00 3f
       0.50290143 0.4853397 0.50895774 0.5030055
0000b0 e9 98 7a bf 4b cf be bf d1 44 53 3f 97 9e 46 3e
       -0.9788957 -1.4907011 0.8252688 0.19396435
0000c0 a0 62 be bd c3 d8 31 3e 4b 80 c7 3e 2c a4 d2 bd
       -0.09296155 0.17367844 0.38965067 -0.102852196
0000d0 de f6 d5 be 78 24 17 bf da 57 8b be 13 11 a4 3e
       -0.41789907 -0.5904002 -0.27215463 0.32044277
0000e0 9b 63 85 be 77 6e 9b be 90 8f c3 3e 11 f2 13 3f
       -0.26052555 -0.30357715 0.38195467 0.5779124
0000f0 d8 0f 4b 3e 93 95 9e bd c5 17 6f 3f b9 28 f2 3e
       0.19830263 -0.07743373 0.93395644 0.47296694
000100 b1 b8 07 3f 2b 39 56 be 7e 1b ae bd 0d 8d a6 bc
       0.5301619 -0.20920245 -0.085013375 -0.02033093
000110 7d 17 bb 3e 80 b3 91 3e b9 e1 9e be a0 18 1c 3e
       0.36541358 0.2845726 -0.31031588 0.15243769
000120 58 34 aa 3e be 78 2e be 5b 24 88 bf b7 7f f9 3d
       0.3324306 -0.17038247 -1.0636095 0.12182563
000130 52 2e 0f bf 74 e1 0d 3e fe 62 9f 3e 77 bc 9d bd
       -0.55930054 0.13855535 0.31130213 -0.077019624
000140 a1 59 37 bf 30 7a f4 3e 93 82 4d be 0f 6a ab 3e
       -0.7162114 0.47749472 -0.20069341 0.33479354
000150 d6 1c 19 bf a6 f9 22 bf d8 80 42 3f 2a 6a ce 3d
       -0.59809625 -0.63662183 0.7597785 0.10078843
000160 af e0 96 3f a5 8e db 3e 66 0b 86 be 78 44 64 3f
       1.1787318 0.42882267 -0.2618057 0.89166975
000170 c5 9b 54 3f e5 ae 4a bf 54 a1 91 3f c6 50 37 bf
       0.83050185 -0.7917312 1.1377358 -0.71607625
000180 26 c2 96 3e 07 d8 40 3d 5e a2 03 3f 44 c4 f7 3e
       0.29444999 0.04708102 0.5141963 0.48391926
000190 93 e3 8c be ac 5a 4d bf 38 e9 14 3f 13 97 38 bf
       -0.27517375 -0.8021648 0.58168364 -0.7210552
0001a0 33 c0 26 3f ce b4 8a be 29 59 a6 be 09 2b e1 3e
       0.6513702 -0.27091068 -0.324899 0.43978146
0001b0 3c ae b4 be 27 cf 9b 3e f4 14 14 bf 53 72 3d bd
       -0.3528918 0.30431482 -0.5784447 -0.046251606
0001c0 41 22 54 bf be 5f c7 3e 34 86 7c be 5f 93 0c 3f
       -0.8286477 0.38940233 -0.2466057 0.5491237
0001d0 76 5c 34 bf d1 33 ac be fc a6 68 be b4 ea a1 3e
       -0.70453584 -0.33633283 -0.2271995 0.31624377
0001e0 0a f1 bb be 37 dc 85 be 8f a5 8c bf 37 c1 2a bf
       -0.36707336 -0.26144573 -1.0988024 -0.6670107
0001f0 8c 95 01 3f 3c 46 46 3e 14 9b ab be 27 7b d3 be
       0.50618815 0.1936273 -0.33516753 -0.41304895
000200 bc cd aa 3e 0a fa 81 3f 6d 66 90 be 7f 28 8b be
       0.33360088 1.0154431 -0.28203145 -0.27179334
000210 c6 dc ed be e5 2f 0d bd db 85 7d be b1 cc bc be
       -0.464575 -0.034469504 -0.24758093 -0.36874917
000220 39 eb fd 3e 15 5f 00 3f 81 fc 0b bf da 34 54 bf
       0.49593523 0.50145084 -0.54682165 -0.82893145
000230 1a fe 3f 3f 07 ce d3 be 82 35 b2 3c 05 f1 96 be
       0.74997103 -0.41368124 0.02175403 -0.29480758
000240 31 2f 78 bf 8c ac 25 3f ab 50 ff 3e 70 27 15 be
       -0.9694701 0.6471641 0.49866232 -0.14565825
000250 c4 d4 17 be 57 67 2d bf fc b7 01 3f fe 95 24 bf
       -0.14827257 -0.6773581 0.5067136 -0.6429137
000260 2b af 45 bf 10 25 11 bf de 39 51 bf 09 e6 51 bf
       -0.7722041 -0.5669718 -0.81728923 -0.8199163
000270 b2 85 17 3f 1f dc e8 3e 1a d0 10 3f 75 ee b6 be
       0.5918838 0.4548044 0.5656754 -0.35728803
000280 51 55 40 be 64 90 03 bf 3a c6 19 bf fe 0c 34 3d
       -0.18782546 -0.513922 -0.60068095 0.043957703
000290 89 6f 91 bf 87 ff 0c bf 06 27 02 bf 6d 84 2e 3f
       -1.1362163 -0.55077404 -0.50840795 0.68170816
0002a0 14 94 67 3f ca 7a bf 3e 1f db 60 3e f5 fe 89 3e
       0.90460324 0.37398368 0.21958588 0.2695233
0002b0 b2 09 3b 3f 20 f9 07 bf 41 2c c8 be 9c d3 aa 3f
       0.7306167 -0.5311451 -0.39096263 1.3345828
0002c0 70 67 e1 3d 01 6e 82 3f 93 3e 85 bd 27 9c 12 3d
       0.11006057 1.018982 -0.06506076 0.03579345
0002d0 60 d2 b4 be 52 e5 03 bf 78 3d be 3c ad ae eb be
       -0.35316753 -0.5152179 0.02322267 -0.46031705
0002e0 85 a5 2a 3f 10 37 89 3e 32 e8 46 be 4b bb 07 bf
       0.6665881 0.26799822 -0.19424513 -0.5302016
0002f0 bc 13 b0 bd 19 a4 09 bf d4 ad 07 3e 15 f1 e4 3d
       -0.08597514 -0.5376602 0.13249904 0.11178795
000300 51 00 d6 3e 88 10 9d be 77 05 51 3f 83 e0 97 3e
       0.41797116 -0.30676675 0.81648964 0.29663476
000310 35 72 6d be 0e d3 cd 3f e9 ab 08 3f 7a 58 9f be
       -0.23188098 1.6080034 0.53387314 -0.3112219
000320 d4 70 e8 bd 98 67 49 bf 99 b8 5e bf a8 d4 09 3f
       -0.11349645 -0.78673697 -0.87000424 0.5384011
000330 1d 5f 00 bf 8d 05 51 3f 9e 2f db be ec 1a e7 be
       -0.5014513 0.81649095 -0.42809767 -0.45137727
000340 d2 f0 47 3f 27 eb 25 be d3 d1 5c be 75 61 86 3d
       0.7810184 -0.16202985 -0.21564417 0.06561557
000350 8b da a4 3f a8 9e 0f 3d 94 12 1e 3e 19 ff b9 be
       1.2879194 0.035063416 0.15436774 -0.36327437
000360 da 41 31 3f 7b d5 92 be e0 db 98 3e ad 5c 86 3f
       0.69241107 -0.28678498 0.2985525 1.0497032
000370 5a 98 61 3f 1d 50 7b 3f af 34 8d be e7 f6 d1 3e
       0.88123095 0.9816912 -0.27579257 0.41008684
000380 d2 30 24 3e bb 8e 24 3e 13 b6 0f 3f 82 53 77 be
       0.16034248 0.16070072 0.561372 -0.2415295
000390 f6 cd d6 3e e6 9b ea bc 42 a9 8d 3e e4 1d 92 3f
       0.4195401 -0.028638791 0.27668196 1.1415372
0003a0 61 99 a9 3d d6 67 1e 3e 24 50 32 be 7b bf 3e 3f
       0.08281208 0.15469298 -0.17413384 0.74510926
0003b0 17 d2 60 3f 5c 7b 2e be 6f ca 10 bf 56 b2 ea 3e
       0.8782057 -0.17039245 -0.5655889 0.45839185
0003c0 b6 c5 ee be e3 0f 88 3e 40 57 d3 bd e6 dd 5e be
       -0.46635216 0.2657462 -0.10319376 -0.21764335
0003d0 a7 0e 91 3e 3f 2c 06 3e 4d 7e 12 bf da 76 d0 3d
       0.2833149 0.13102816 -0.5722397 0.10178919
0003e0 e2 e0 a9 3f 0d a8 39 bf 12 d5 5b 3f 94 e5 02 3d
       1.3271754 -0.7252205 0.85871994 0.031957224
0003f0 52 51 8d be 3a 02 97 3f 4d 97 44 bf 8e bb a0 be
       -0.27601105 1.1797554 -0.76793367 -0.31393093

l1.bias f4 [8]
000000 c4 61 37 3f 39 1b 54 3f 61 16 54 3f bd 98 b3 3f
       0.71633554 0.8285404 0.8284665 1.4030987
000010 a7 45 e1 3f 7d 6d 92 3f 74 39 78 3f 1a 50 73 3f
       1.7599381 1.1439663 0.96962667 0.950441

l2.weight f4 [8, 8]
000000 63 d9 e7 bc 7c 36 44 3d 6a 52 a3 be 04 28 cf be
       -0.0283019 0.047903523 -0.31898814 -0.40460217
000010 8d 43 09 be 6e 4a d5 bb b0 93 99 3d 45 d7 79 3e
       -0.13404675 -0.006509117 0.07498872 0.24398525
000020 0f 6c fa 3e ba b2 05 c0 67 3c f8 3f 14 98 f5 bf
       0.48910567 -2.0890336 1.9393433 -1.9187036
000030 25 71 c0 3f 55 8c 0d 3c 8c 63 f6 3f b8 b9 55 3e
       1.5034529 0.008639415 1.9249129 0.20871627
000040 bd 58 f7 be 7d 5f 82 3f c5 3a 2a bf 74 49 56 3f
       -0.4830989 1.0185391 -0.66495925 0.8370583
000050 25 0b 0c 40 f2 69 fc bf 04 e3 81 3f 11 72 f0 3f
       2.1881802 -1.9719832 1.0147405 1.878481
000060 20 e3 b5 3f a3 3b 0d 40 be 74 1e 40 db f6 fa 3e
       1.4209938 2.206765 2.4758754 0.4901646
000070 a2 bc bd bf 3e 82 24 40 66 21 be 3e 22 ba 93 3f
       -1.4823191 2.5704494 0.37134856 1.1541178
000080 7c fa d0 3f 3a f5 b6 bf 6e 80 65 3f ee 31 17 bf
       1.6326442 -1.4293587 0.89649093 -0.5906056
000090 66 cc 80 3f 89 bc 06 3f 6a 97 f1 3e 65 c5 c6 bf
       1.0062377 0.5263143 0.47185832 -1.552899
0000a0 1f ad fe be fe 7c d7 be dd f9 7a bf 7f c7 0d 40
       -0.49741456 -0.4208755 -0.9803751 2.2153013
0000b0 52 e5 dc 3f 9e 56 c6 3f 83 7a 6f bf 07 31 35 3e
       1.7257483 1.5495183 -0.93546313 0.17694484
0000c0 9a 79 3f bf da d3 3d bf 6a b9 bc 3f 7a 76 11 bf
       -0.74794924 -0.74151385 1.4744084 -0.56821406
0000d0 15 ad 81 3e 1b 74 ab 3f b0 0d fb 3f 3b 2d 24 40
       0.25327364 1.3394808 1.9613552 2.5652606
0000e0 8e 5b 07 40 2d b7 02 40 1b 60 89 ba d7 70 14 3f
       2.114963 2.0424302 -0.0010480912 0.5798468
0000f0 52 e5 54 3f e7 d5 09 bf 7e 48 da 3f 2b bd 00 c0
       0.83162415 -0.53842014 1.7053373 -2.011546

l2.bias f4 [8]
000000 b5 f5 c2 be 43 f2 ec 3e d9 0b 84 3f 87 9c ed 3e
       -0.38078085 0.4627858 1.0316116 0.46408483
000010 e7 d7 1f 3f b0 34 a8 3f 15 6e d0 3d 17 df 9d bd
       0.62438816 1.3141079 0.101772465 -0.07708567

l3.weight f4 [21, 8]
000000 d9 ba d8 3b 15 8f dc 3e 8b aa 20 c0 01 d2 3c 3f
       0.006614071 0.43077913 -2.510409 0.7375794
000010 df f8 04 3f 74 bc e6 bf af f7 ab 3e cf 45 07 c0
       0.5194225 -1.8026261 0.33587405 -2.1136358
000020 56 de 58 3e f9 d9 b9 3e 81 d6 fc bf a5 11 26 3e
       0.21178564 0.36299112 -1.9752961 0.16217668
000030 b3 d7 e1 3e 2a 95 62 c0 ae 91 75 3d 2f ad 54 3e
       0.44109878 -3.5403543 0.059953384 0.2076919
000040 43 74 fc bd b0 b6 1e 3f f7 6f 0a 3f 05 c2 19 c0
       -0.12326863 0.6199751 0.54077095 -2.402467
000050 e0 6f 80 bc 9b 9b ea 3d 06 40 37 be e9 e3 00 c0
       -0.015678346 0.11455461 -0.17895517 -2.0139105
000060 90 d5 15 3e ea 7d 8c be 7b bb 8d be 9a 54 33 3e
       0.14632249 -0.27439815 -0.276821 0.17512742
000070 e8 8f fd 3e 89 d6 bc bf 40 d2 81 bf cf c5 1f 3e
       0.49523854 -1.4752971 -1.0142288 0.15602802
000080 3e 8f 22 3e ac 66 e7 bf bf ad c0 bf 56 9b ae 3e
       0.15874955 -1.8078208 -1.5053023 0.34102887
000090 4f c4 8a 3f e1 65 56 be 50 f8 a0 bf 3c fd 84 3d
       1.0841159 -0.20937301 -1.2575779 0.06493613
0000a0 5f 0a 89 be 94 fd fa 3e 87 61 48 bf 75 e1 9d be
       -0.26765725 0.4902159 -0.78273815 -0.30836073
0000b0 27 1f 86 3e 97 60 2a bf 93 bc 54 3e 42 1d ff be
       0.26195642 -0.66553634 0.2077506 -0.4982701
0000c0 8c 49 61 be e0 78 14 be f9 6c 48 3f 0f fd 8a bf
       -0.22000712 -0.14499235 0.7829128 -1.0858477
0000d0 72 b0 ca bf c0 e1 92 bf 20 bd 07 3f 1c 4a 39 bf
       -1.5835097 -1.1475143 0.53022957 -0.72378707
0000e0 52 af 1a 3e 47 c6 04 3f b7 5a e6 3d 44 9b ff bf
       0.15105942 0.5186505 0.11247771 -1.9969258
0000f0 f5 4e 81 3f b3 64 62 bf 45 ac 1c bf 2f 16 17 3e
       1.0102221 -0.88434905 -0.6120036 0.14754556
000100 dd 64 3a 3c 13 4e a6 3e f1 12 b1 be 4d 66 3c 3e
       0.011376587 0.3248144 -0.34584764 0.183984
000110 c2 c5 79 be c4 cb 70 bf 06 bc 05 3f fd 53 42 c0
       -0.24391845 -0.9406092 0.52240026 -3.0363762
000120 83 77 0d 3e 23 4e 5e bf 12 c7 a3 3d db 00 45 bf
       0.13815121 -0.8683798 0.07996954 -0.7695443
000130 32 ae c0 3e 72 77 7a 3d 23 d1 19 bf 46 dd 9b 3d
       0.376329 0.06114907 -0.6008474 0.07610564
000140 9e 19 8d be 15 0c 14 c0 97 6e b9 3e ef 22 b9 bd
       -0.27558607 -2.3132374 0.36217186 -0.09039866
000150 b8 60 7c bf fb c9 99 bf 5e b4 a6 bf 7c 73 59 3f
       -0.9858508 -1.2014765 -1.3023794 0.8494184
000160 0d 68 a3 bd 01 9b 81 bf 1c c3 d8 bc 8d cf 36 c0
       -0.079788305 -1.0125428 -0.026460223 -2.856418
000170 aa 48 03 3f 78 37 5d 3f 50 da d3 bf 72 35 81 be
       0.5128275 0.86412764 -1.6550999 -0.25236088
000180 1c f4 b0 be 4b 54 fc bf 56 df 68 3f 70 a3 9b bf
       -0.3456124 -1.9713224 0.90965784 -1.2159252
000190 50 88 eb bf 29 36 84 3e 8e 7c 09 c0 25 81 93 3e
       -1.8400974 0.2582257 -2.1482272 0.28809467
0001a0 c8 a8 af be 4f 66 1d c0 80 9c 44 bf b8 53 ba bd
       -0.34308457 -2.4593694 -0.768013 -0.09097999
0001b0 8a a5 1b bf 64 ce 97 3f ac e1 ad bf 66 4d b0 bf
       -0.6079947 1.185986 -1.3584495 -1.377362
0001c0 99 c3 93 be ea f7 4e 3f b4 bf a0 3e 1b c6 25 bf
       -0.28860167 0.80847037 0.31396258 -0.6475541
0001d0 12 38 32 be be 34 26 c0 d0 13 aa 3e 04 37 a4 bf
       -0.17404202 -2.5969691 0.3321824 -1.282929
0001e0 84 13 99 be 98 80 b0 bf 7b 8a c4 bf e5 51 87 3f
       -0.29897702 -1.3789244 -1.5354761 1.0571867
0001f0 f8 0e ce be c2 db 2f be a2 d7 97 3e 60 be 1d c0
       -0.40245795 -0.17173675 0.29656702 -2.4647446
000200 92 72 57 3d 5f 8c 3c bf 7b cc 2b 3e 99 67 4a be
       0.052599497 -0.7365169 0.16777222 -0.19766082
000210 8f 20 c3 bf 95 79 ac 3e 02 63 9d 3e a7 21 34 c0
       -1.5244311 0.3368651 0.307396 -2.814554
000220 ae e9 31 3e 66 86 5e bf 2f 55 39 bf 58 9a 3b 3f
       0.17374298 -0.86923826 -0.72395605 0.73282385
000230 6f 96 7d bf 98 e0 da bf 78 6e b5 3e ab 08 64 bd
       -0.9905767 -1.709979 0.35435843 -0.05567233
000240 15 89 12 be 9d 5c 10 c0 7a b5 50 3f db dd 12 c0
       -0.14310105 -2.2556527 0.8152691 -2.294791
000250 32 af a1 bf a4 79 30 3f 7c 47 e9 3b 5c e9 a4 bf
       -1.263159 0.6893561 0.0071191173 -1.2883716
000260 f8 17 b4 be 11 4a 17 c0 63 d2 a1 be 3f c8 0b 3f
       -0.35174537 -2.3638957 -0.31605825 0.54602426
000270 22 31 e3 bf 20 9c 87 3e 80 82 54 c0 a8 7d 11 3e
       -1.7749369 0.264863 -3.320465 0.1420809
000280 d1 a2 11 3d 4b 0a 16 c0 6c eb 28 be 30 89 86 3c
       0.035555664 -2.3443782 -0.16496056 0.016422838
000290 dd 89 e7 bf da 1e 1f be ab ef ae 3e d1 c5 c6 bd
       -1.8088948 -0.15539113 0.34167227 -0.09705699

l3.bias f4 [21]
000000 fe 8a 67 3d 79 cd 4e bf cf c4 a6 3d 58 eb 82 bc
       0.056529038 -0.80782276 0.08143007 -0.015981361
000010 f6 52 38 be 81 58 ca 3e 6d a6 16 3e 44 74 ea 3e
       -0.18000397 0.39520648 0.14711924 0.4579183
000020 d0 4e 84 be 42 3c 71 3e 76 46 5a be 76 77 8e be
       -0.2584138 0.23558143 -0.21315941 -0.27825516
000030 0c 86 a9 3e e9 7e 83 3e 8d f2 bc be ac 59 a0 3e
       0.33110082 0.25682762 -0.36903802 0.31318414
000040 45 0b f7 3d 21 f0 e9 3d d8 9b 06 3d c8 40 e7 3e
       0.12062696 0.11422754 0.032863468 0.45166612
000050 8e ab f9 be
       -0.48763698
